Downloads/All_in_pytorch 2/Models/Expe4/best_model_train.pth (torch, 476952 bytes, 3 tensors)

linear1.weight f4 [100, 1185]
-0.014042 -0.058050264 -0.082401566 0.109976634 0.038106803 0.03995788 0.04069943 -0.20961708
-0.07101535 -0.09130391 0.0058277436 0.043576557 0.19643413 -0.0068556797 0.04011819 0.009539817
-0.034687556 0.024592185 -0.01909138 0.05845383 0.028308302 -0.060418192 0.061245322 -0.0041997014
0.0038463066 -0.009944442 -0.085987486 0.09052095 -0.011656516 0.07861824 0.016506987 -0.049167935
0.03587108 -0.026564319 -0.07950401 0.014369193 -0.01133961 0.061572958 0.102207966 -0.031108705
-0.02367588 -0.0069316397 0.030940007 -0.03763944 0.045704998 -0.04774457 0.002091283 0.012283946
-0.032935258 0.014135096 -0.0017072762 -0.0966168 0.041962568 -0.057997707 -0.032822147 0.019684345
0.015692025 0.044486403 0.02004276 0.023740701 -0.023616523 0.011610223 0.01475818 0.019543292
0.035064936 0.08533548 0.032074347 -0.040220354 -0.0015404446 -0.04880831 0.25311217 0.030694164
-0.13813394 -0.012362855 0.044154678 -0.11808054 -0.040785268 -0.0074770143 -0.043767147 -0.017021382
0.031566896 0.013773026 -0.03387962 0.0016001285 -0.04139893 -0.030145885 -0.009778619 -0.0013736578
-0.06488848 -0.032059364 -0.029272515 -0.05709363 0.041246574 -0.015642636 0.016080912 0.050140765
0.0112220105 -0.0691976 0.04657891 -0.009424175 0.07287138 -0.17298956 -0.090069 0.21946624
0.005440308 0.011244582 0.18526685 -0.047876872 0.020906625 0.0119816465 0.042180397 0.059458043
-0.018622005 0.019413054 -0.13036846 -0.029768588 0.049845174 -0.17113309 0.005369886 -0.007972899
-0.019644862 -0.010065548 -0.0041628177 -0.23706622 -0.0440602 -0.004085095 0.015115712 0.05304195
-0.0017197189 0.07943728 -0.026893292 0.028827377 -0.07851852 0.019334706 -0.22777897 0.049314007
0.001665852 0.016367856 0.039618623 0.12048063 -0.028424978 -0.06959536 -0.063022286 -0.028163008
0.0151432725 -0.06810027 -0.23023744 -0.002851002 0.00076789485 0.023864832 0.014729123 0.15695521
-0.058791004 -0.30035624 -0.10851525 -0.039142538 0.0058290837 -0.01452512 -0.08748207 0.15436563
-0.28887364 -0.05422361 -0.16289543 -0.08080155 -0.10246422 0.032130893 0.0069101118 0.14861764
-0.0069897873 0.02640318 -0.014848896 0.076475576 0.028420202 -0.035654876 -0.1476135 0.08801685
-0.05229855 0.10319676 0.049799647 -0.17065094 0.022712445 0.055429727 0.041183524 -0.0449573
-0.23696123 0.05114274 0.11092216 0.039969005 0.07497983 -0.051417015 0.015581276 -0.038315587
0.011006428 0.054003976 -0.057465266 -0.031318504 -0.092599146 0.016200056 0.0023096916 0.020762572
-0.005168915 -0.10286438 -0.056380093 -0.012537218 0.040637806 -0.026420044 -0.14324829 -0.07924111
0.003355541 -0.03145454 0.024406334 -0.034851164 -0.04760312 -0.04335196 -0.12511241 0.014088096
0.0190206 -0.015991358 -0.064603485 -0.13217627 0.01553223 -0.016925257 0.026317127 0.076689616
-0.07146051 0.04348066 0.057425678 0.04556555 -0.051465537 0.09904763 -0.104052156 0.041424956
-0.0128086 -0.05001843 -0.049522214 -0.057697736 0.0056171105 0.026793549 -0.068613775 0.00016893834
0.0041918415 0.0634496 -0.09573793 0.04928249 0.013104297 0.025292752 -0.0782283 0.004195898
-0.018821105 0.032272413 0.18695082 -0.0009064913 -0.047272716 0.040275734 -0.14569183 -0.008974945
00000000: 6b10 66bc 1dc6 6dbd 27c2 a8bd 6e3b e13d
00000010: e115 1c3d e0aa 233d 72b4 263d dca5 56be
00000020: 7f70 91bd 8bfd babd a8f6 be3b 557d 323d
00000030: 0726 493e 9ca5 e0bb f952 243d e54c 1c3c
00000040: 8a14 0ebd 8d75 c93c 8765 9cbc 496d 6f3d
00000050: d0e6 e73c 1179 77bd 60dc 7a3d a69d 89bb
00000060: 5112 7c3b 03ee 22bc 351a b0bd 0c63 b93d
00000070: f9fa 3ebc 9a02 a13d a939 873c 5164 49bd
00000080: 8eed 123d 6a9d d9bc 00d3 a2bd c46c 6b3c
00000090: c6c9 39bc ed33 7c3d 6952 d13d afd7 febc
000000a0: ebf3 c1bc cf22 e3bb e675 fd3c d02b 1abd
000000b0: 2a35 3b3d cf8f 43bd e80d 093b 9b42 493c
000000c0: 1fe7 06bd e496 673c afc6 dfba 07df c5bd
000000d0: f1e0 2b3d 018f 6dbd 8470 06bd 1041 a13c
000000e0: 908c 803c 6037 363d b730 a43c dc7b c23c
000000f0: 7077 c1bc ce38 3e3c 4bcc 713c 4119 a03c
00000100: 40a0 0f3d 5ec4 ae3d 6460 033d 19be 24bd
00000110: bee8 c9ba 39eb 47bd eb97 813e 5472 fb3c
00000120: fc72 0dbe 928d 4abc 89db 343d 36d4 f1bd
00000130: 740e 27bd be01 f5bb 2e45 33bd 6d70 8bbc
00000140: 4a4c 013d 42a8 613c 5bc5 0abd 67bb d13a
00000150: ed91 29bd 81f4 f6bc 8036 20bc 4f0c b4ba
00000160: 40e4 84bd ae50 03bd eacc efbc 03db 69bd
00000170: 2bf2 283d fc24 80bc 1ebc 833c 6760 4d3d
00000180: 86dc 373c 79b7 8dbd 87c9 3e3d db67 1abc
00000190: 973d 953d 2d24 31be 1976 b8bd c2bb 603e
000001a0: 9c44 b23b 323b 383c 98b6 3d3e 8a1a 44bd
000001b0: 5f44 ab3c ab4e 443c 5ac5 2c3d 478a 733d
000001c0: 2d8d 98bc 2008 9f3c 4f7f 05be 41dd f3bc
000001d0: 742a 4c3d 833d 2fbe def5 af3b c3a0 02bc
000001e0: 43ee a0bc f8e9 24bc 3f68 88bb 7dc1 72be
000001f0: 7878 34bd 43dc 85bb e4a7 773c 8442 593d
00000200: 3168 e1ba 03b0 a23d 524f dcbc 6427 ec3c
00000210: 51ce a0bd d163 9e3c e43e 69be 7cfd 493d
00000220: b858 da3a e215 863c 2347 223d 8cbe f63d
00000230: 80db e8bc 0388 8ebd d411 81bd 1cb6 e6bc
00000240: 7d1b 783c 2878 8bbd 5dc3 6bbe e0d7 3abb
00000250: 8d4c 493a 2e80 c33c 6b52 713c deb8 203e
00000260: d6ce 70bd 4bc8 99be 3e3d debd ed53 20bd
00000270: e601 bf3b c5fa 6dbc cd29 b3bd 0612 1e3e
00000280: 3fe7 93be 9319 5ebd 0fce 26be 487b a5bd
00000290: c3d8 d1bd af9b 033d 386e e23b 392f 183e
000002a0: 960a e5bb 7b4b d83c c948 73bc 3a9f 9c3d
000002b0: 7cd1 e83c d90a 12bd fe27 17be 2e42 b43d
000002c0: 0137 56bd d358 d33d b7fa 4b3d 1fbf 2ebe
000002d0: 730f ba3c 480a 633d 0eb0 283d 2525 38bd
000002e0: f7a5 72be 0d7b 513d 282b e33d 8ab6 233d
000002f0: 068f 993d a69a 52bd 9c48 7f3c cef0 1cbd
00000300: 4e54 343c 4633 5d3d b360 6bbd d547 00bd
00000310: 9fa4 bdbd fbb5 843c 325e 173b 4516 aa3c
00000320: 0060 a9bb 8faa d2bd d0ee 66bd e768 4dbc
00000330: d473 263d d96e d8bc aeaf 12be 2a49 a2bd
00000340: a3e8 5b3b 7ad6 00bd cbef c73c 18c0 0ebd
00000350: 7dfb 42bd d391 31bd 781d 00be c2d1 663c
00000360: 17d1 9b3c 4f00 83bc d54e 84bd 3759 07be
00000370: e57a 7e3c d6a6 8abc 0497 d73c 720f 9d3d
00000380: e359 92bd c718 323d 3037 6b3d f1a2 3a3d
00000390: 87cd 52bd 7cd9 ca3d 4c19 d5bd 37ad 293d
000003a0: 2adb 51bc 20e0 4cbd ced7 4abd 7654 6cbd
000003b0: bd0f b83b 257e db3c 6185 8cbd 0a25 3139
000003c0: b75b 893b ddf1 813d 3f12 c4bd 70dc 493d
000003d0: 68b3 563c bf32 cf3c 2936 a0bd be7d 893b
000003e0: b82e 9abc 1430 043d 0970 3f3e 9aa1 6dba
000003f0: 09a1 41bd 2bf8 243d 3d30 15be a60b 13bc

linear1.bias f4 [100]
-0.04114582 0.2024271 -0.04820996 -0.046419192 0.117998265 -0.12628666 0.208916 -0.026542716
0.12171728 0.115942724 -0.04991182 0.13274333 0.14023644 -0.096989244 -0.30480286 0.17672183
-0.048502494 0.1058318 0.09450565 0.10738886 -0.04496432 0.20596182 0.13759872 -0.043370917
-0.034794264 0.12233726 0.17386556 -0.045298386 0.110758536 -0.045700375 0.17151035 -0.042843543
0.10581681 0.12243552 0.11141526 0.11344815 -0.14938487 0.10385239 0.13712241 0.01658217
0.18518865 0.10515132 0.10776561 -0.042791877 0.09931364 0.11818816 0.13069372 0.111719295
-0.04587421 0.12889065 -0.038450453 0.10701226 -0.29750982 -0.049295608 0.12392379 -0.047891583
-0.05236147 0.11791589 -0.26090455 -0.20174924 0.13992637 0.11664357 -0.04628883 0.101057366
-0.039484743 -0.044313885 0.12891485 -0.044396114 0.12074602 0.17883219 0.124348864 -0.015281799
-0.03717524 -0.03571508 0.15362985 -0.039717883 -0.047869295 0.13745669 0.11893845 0.10970847
0.1127672 -0.041120633 0.14689337 -0.20911011 -0.046660487 -0.043869313 0.12234552 -0.03822237
-0.054494455 -0.057263765 0.11903204 -0.05531147 0.13262115 0.09556553 0.15835384 0.10113798
0.23495956 -0.049447164 0.11378769 0.09951617
00000000: 8588 28bd 0d49 4f3e cf77 45bd 0d22 3ebd
00000010: 13a9 f13d 4a51 01be 13ee 553e 1c70 d9bc
00000020: e946 f93d 6173 ed3d 5670 4cbd deed 073e
00000030: 249a 0f3e 4ca2 c6bd 1f0f 9cbe 91f6 343e
00000040: 8daa 46bd 58be d83d 2e8c c13d b1ee db3d
00000050: 822c 38bd a8e7 523e aee6 0c3e b4a5 31bd
00000060: 6e84 0ebd f58b fa3d d009 323e cd8a 39bd
00000070: 5fd5 e23d 5130 3bbd 69a0 2f3e b67c 2fbd
00000080: 7cb6 d83d 79bf fa3d af2d e43d 8157 e83d
00000090: 59f8 18be 90b0 d43d d169 0c3e 55d7 873c
000000a0: 18a2 3d3e 9359 d73d 37b4 dc3d 8946 2fbd
000000b0: f364 cb3d a20c f23d 93d4 053e 16cd e43d
000000c0: 98e6 3bbd e9fb 033e 397e 1dbd 3e29 db3d
000000d0: 3553 98be 31ea 49bd c2cb fd3d f729 44bd
000000e0: fb78 56bd e37d f13d 4895 85be 5a97 4ebe
000000f0: dc48 0f3e d3e2 ee3d 5b99 3dbd 2af7 ce3d
00000100: c1ba 21bd 7a82 35bd 4102 043e b3d8 35bd
00000110: b049 f73d c91f 373e 9eaa fe3d 8360 7abc
00000120: 1145 18bd fa49 12bd 2551 1d3e 38af 22bd
00000130: 9812 44bd 72c1 0c3e 0196 f33d d6ae e03d
00000140: 7df2 e63d 1c6e 28bd 376b 163e f620 56be
00000150: 111f 3fbd 4fb0 33bd 4a90 fa3d 0f8f 1cbd
00000160: 9435 5fbd 698d 6abd 12c7 f33d 488e 62bd
00000170: d7cd 073e dcb7 c33d 8227 223e 6e21 cf3d
00000180: 3d99 703e 1c89 4abd 8509 e93d 22cf cb3d

linear2.weight f4 [1, 100]
-0.049345043 -0.22554682 0.23300904 0.015131161 -0.24030171 -0.53264093 -0.25273883 0.58955854
-0.19655879 -0.3788957 0.12122879 -0.26511696 -0.17851207 -0.37484142 -0.98511285 -0.22368957
0.26851448 -0.2272847 -0.25665557 -0.22049613 0.46070915 -0.62917703 -0.18374202 0.1826444
0.35777393 -0.23914231 -0.23933128 0.29607427 -0.18024053 0.25595364 -0.18906435 0.087024234
-0.21998638 -0.16509905 -0.118523076 -0.16717911 -0.6389286 -0.27172482 -0.21381892 0.6072005
-0.26397255 -0.28790954 -0.20797019 0.021012587 -0.25062516 -0.1996481 -0.4357454 -0.37496778
0.10229901 -0.20327607 -0.14904842 -0.23578848 -0.75020564 0.10708302 -0.16388486 0.20604846
0.15003113 -0.2012295 -0.7824169 -0.75635046 -0.13390364 -0.17292842 0.5219548 -0.19466448
0.29453573 0.48754165 -0.29250777 0.37769735 -0.28946415 -0.23114781 -0.27999195 0.7822507
0.34252346 0.39129478 -0.18797305 0.63055944 0.05501804 -0.12740198 -0.12875979 -0.33910272
-0.18828964 0.18381494 -0.24712688 -0.89261734 0.56782144 0.40088484 -0.17350413 0.29831848
0.50253934 0.059201658 -0.16129033 0.062382035 -0.18457104 -0.2401653 -0.20937212 -0.13350351
-0.5922557 0.1649722 -0.19281977 -0.20666103
00000000: 071e 4abd bff5 66be ec99 6e3e b0e8 773c
00000010: a711 76be 285b 08bf fc66 81be 4fed 163f
00000020: b546 49be 9efe c1be cd46 f83d 69bd 87be
00000030: decb 36be 37eb bfbe 5b30 7cbf e10e 65be
00000040: bb7a 893e 52bd 68be 5c68 83be bdc9 61be
00000050: 12e2 eb3e bf11 21bf de26 3cbe 2207 3b3e
00000060: 252e b73e b9e1 74be 4213 75be 0c97 973e
00000070: f990 38be 5b0c 833e 169a 41be c339 b23d
00000080: 1c44 61be ba0f 29be 3abc f2bd 0031 2bbe
00000090: d390 23bf 841f 8bbe 59f3 5abe 7e71 1b3f
000000a0: 6927 87be e168 93be 23f6 54be 9722 ac3c
000000b0: f151 80be 8d70 4cbe 051a dfbe c7fb bfbe
000000c0: 2582 d13d 9a27 50be 26a0 18be 8972 71be
000000d0: 7a0d 40bf 584e db3d 6fd1 27be 5efe 523e
000000e0: c3a1 193e 1b0f 4ebe 794c 48bf 2fa0 41bf
000000f0: 091e 09be 2614 31be d49e 053f 2056 47be
00000100: 63cd 963e 0f9f f93e 94c3 95be 8c61 c13e
00000110: a534 94be 03b2 6cbe 1b5b 8fbe 9541 483f
00000120: 3c5f af3e ca57 c83e 027c 40be 586c 213f
00000130: 995a 613d aa75 02be 9bd9 03be df9e adbe
00000140: 00cf 40be fc39 3c3e d40e 7dbe 9282 64bf
00000150: bf5c 113f c740 cd3e 11ab 31be 33bd 983e
00000160: 6ba6 003f 707d 723d 4b29 25be 4e84 7f3d
00000170: 3100 3dbe e4ed 75be a565 56be 25b5 08be
00000180: 129e 17bf 79ee 283e 8c72 45be f39e 53be
