Downloads/All_in_pytorch 2/Models/Expe1/best_model_train.pth (torch, 445090 bytes, 5 tensors)

linear1.weight f4 [200, 350]
0	0x3e5a739c	0.21333164
1	0xbbf6c83c	-0.007531194
2	0x3e22f952	0.1591542
3	0xbd861319	-0.06546611
4	0x3dccee2a	0.10006364
5	0x3dfe62e0	0.12421203
6	0x3df0190d	0.11723528
7	0x3d22b9d3	0.039727997
8	0x3cd3243c	0.025774114
9	0x3c2cd930	0.010549828
10	0x3d6f32a9	0.058397923
11	0xbd7199f8	-0.058984727
12	0x3d08557a	0.03328464
13	0x3e57d554	0.21077472
14	0x3c604aa1	0.013689668
15	0xbd66aa4d	-0.056314755
16	0xbe232833	-0.15933304
17	0x3de712d2	0.112828866
18	0xbe068a96	-0.13138804
19	0x3db43ccc	0.088006586
20	0xbd3fcd6f	-0.046826776
21	0xbdedc69b	-0.116101466
22	0x3e388189	0.18018164
23	0xbd6dedb7	-0.05808803
24	0xbe350592	-0.17677906
25	0x3e74f224	0.23920494
26	0xbcea52ae	-0.028603878
27	0x3dd8a38d	0.1057807
28	0x3e867d5a	0.2626751
29	0xbe05eab7	-0.13077818
30	0x3ce7ca1d	0.028294617
31	0x3d287617	0.041128244
32	0x3bf8974a	0.0075863944
33	0x3de263ed	0.110542156
34	0x3e1e3d2b	0.15453021
35	0xbd3dc1cc	-0.046327397
36	0xbe4d260b	-0.20034043
37	0x3d604ad1	0.05475885
38	0xbd894ec0	-0.067044735
39	0x3d637415	0.055530626
40	0xbdec8417	-0.11548632
41	0xbd03b119	-0.032151315
42	0x3dc8fe80	0.09814167
43	0x3c5e718e	0.013576878
44	0xbe3829de	-0.17984721
45	0xbe54baa1	-0.20774318
46	0xbc63080b	-0.013856898
47	0xbe1f756b	-0.15572135
48	0x3da6954d	0.081339456
49	0x3ea0a09a	0.3137253
50	0x3dc1c316	0.09461038
51	0x3d453bb3	0.048152637
52	0x3dce51a7	0.10074168
53	0x3e6d2d31	0.2316177
54	0x3d93f639	0.072246976
55	0x3ce65698	0.028117463
56	0x3dfbaa88	0.12288386
57	0xbd8c7d5a	-0.068598464
58	0xbd8306af	-0.06397759
59	0x3d0f9186	0.03505089
60	0x3ca88d2f	0.020575134
61	0x3d8218bf	0.06352376
62	0x3d82cdff	0.06386947
63	0xbe430fbb	-0.1904897
64	0xbce21318	-0.027596995
65	0x3d77a6f0	0.06046194
66	0x3eb75503	0.35807046
67	0x3dd29e58	0.10284108
68	0x3d9260f3	0.07147398
69	0x3e2cca03	0.16873936
70	0xbe21b243	-0.15790658
71	0x3d3cbcfb	0.046078663
72	0x3e0f4488	0.13990986
73	0xbd746ca6	-0.059673928
74	0x3dae9aa0	0.08525586
75	0xbd329230	-0.043596447
76	0xbd663b89	-0.05620912
77	0x3da54daa	0.08071454
78	0x3e55db29	0.20884384
79	0x3d79a8c0	0.06095195
80	0xbe29ad20	-0.16569948
81	0xbd7ccf79	-0.0617213
82	0xbefb80fd	-0.49121848
83	0x3e3e3399	0.1857437
84	0x3d992e0e	0.07479487
85	0xbeb9f9cd	-0.36323395
86	0x3d8e456d	0.06946836
87	0xbd2f57d8	-0.042808384
88	0xbc349e1b	-0.011024023
89	0xbc7c6750	-0.015405491
90	0x3da3c490	0.07996476
91	0x3d2d64bd	0.0423324
92	0x3dadc123	0.084841035
93	0x3d923114	0.07138267
94	0xbebc0aae	-0.36726898
95	0x3daf6b27	0.085653596
96	0x3c42e49c	0.011895325
97	0xbd2628b3	-0.040566158
98	0x3dad385b	0.084580146
99	0x3d80a0df	0.06280684
100	0x3de7f071	0.113251574
101	0xbe72743e	-0.23677155
102	0xbd57c201	-0.05267525
103	0x3d87601c	0.06610128
104	0x3ba16ffa	0.0049266787
105	0x3d1079a1	0.035272244
106	0xbbab0e7d	-0.005220233
107	0x3e4a57c8	0.19760048
108	0x3d36acc5	0.04459836
109	0x3d574001	0.052551273
110	0xbd016763	-0.031592738
111	0x3e22af0b	0.15887086
112	0xbda89606	-0.0823174
113	0x3d3437a5	0.04399838
114	0x3d5ca08c	0.053864047
115	0x3c50ce6b	0.012744526
116	0xbcc09467	-0.023508264
117	0x3db1f84c	0.08689937
118	0x3e7f0857	0.24905525
119	0x3bd4fa75	0.0064995834
120	0x3e20de46	0.1570979
121	0x3dd15337	0.1022095
122	0x3dd9aa1a	0.106281474
123	0x3df9619f	0.12176823
124	0x3aae34d3	0.0013290889
125	0xbf1ea411	-0.61969095
126	0x3e4a61db	0.19763891
127	0x3e48116d	0.19537897
128	0x3e4dbc72	0.20091417
129	0xbcef5de4	-0.029219575
130	0x3e1fcc8b	0.1560537
131	0xbea4403a	-0.3208025
132	0xbe431768	-0.19051898
133	0x3df1f8cb	0.118150316
134	0x3e1b3ba0	0.15159464
135	0xbd851cc0	-0.06499624
136	0xbda06a73	-0.078328036
137	0xbdd7072b	-0.10499414
138	0xbec6c805	-0.38824478
139	0x3e7b8a51	0.24564482
140	0xbe75bf46	-0.23998746
141	0xbd82dde4	-0.063899785
142	0x3d18130c	0.03712754
143	0x3da5c42c	0.080940574
144	0x3dfe3097	0.124116115
145	0xbdc7ff64	-0.09765509
146	0x3dc9bd88	0.09850603
147	0x3dc0e3da	0.09418459
148	0xbe3b03f8	-0.18263233
149	0x3e47b2f6	0.19501862
150	0x3e15b371	0.14619233
151	0xbb3249c7	-0.002720462
152	0x3cc352e3	0.023843234
153	0xbe4b596b	-0.19858329
154	0x3eb0686c	0.34454668
155	0xbdfdf208	-0.123996794
156	0xbc4afc17	-0.012389204
157	0x3e8d3851	0.27582029
158	0xbdd7009e	-0.104981646
159	0x3ddd684d	0.108109094
160	0x3d4b8c35	0.04969426
161	0xbde8301d	-0.11337302
162	0x3e283207	0.16425334
163	0xbe01e1d4	-0.12683803
164	0x3d5f3d8e	0.054502062
165	0x3e18f6a9	0.14937843
166	0x3d062fb3	0.032760333
167	0x3dde49ee	0.10853945
168	0x3db628ef	0.08894526
169	0xbd5a4d9f	-0.05329668
170	0x3cd559a0	0.026043713
171	0x3e29e041	0.16589452
172	0x3e0500a9	0.12988533
173	0x3d10874f	0.03528529
174	0x3e646765	0.22305067
175	0x3de18d55	0.11013285
176	0xbdb30b86	-0.08742432
177	0xbd267e95	-0.04064806
178	0x3e3afdc4	0.18260866
179	0xbe55a71d	-0.2086453
180	0xbe20fff6	-0.15722641
181	0xbe295927	-0.16537915
182	0xbe798f5d	-0.24371095
183	0x3dcc619e	0.099795565
184	0xbd58eb25	-0.052958626
185	0xbca12584	-0.01967121
186	0x3c0ccde8	0.008594014
187	0x3b9ccbb0	0.0047850236
188	0x3e279f60	0.1636939
189	0xbe849b09	-0.25899532
190	0x3d96129c	0.07327768
191	0xbd525aaa	-0.051355995
192	0xbd0aa4cc	-0.03384857
193	0xbdb9bf0f	-0.09069645
194	0x3d0cc87d	0.034370888
195	0x3e099163	0.13434367
196	0x3e2ac17b	0.1667537
197	0x3e894bd4	0.26815665
198	0xbc527de0	-0.012847394
199	0xbe91acbf	-0.28452107
200	0x3d880b25	0.06642751
201	0x3da7be49	0.08190591
202	0xbcd597ca	-0.026073355
203	0xbeed9ee9	-0.464103
204	0xbda3d578	-0.079997
205	0x3d5caa7a	0.053873517
206	0x3e75ed17	0.24016224
207	0xbe35270e	-0.1769068
208	0xbddc28c3	-0.10749962
209	0xbe292d53	-0.16521196
210	0x3e13b18e	0.144232
211	0xbbc02920	-0.0058642775
212	0x3e3b9b73	0.18321018
213	0xbe3b9053	-0.18316774
214	0x3de8876a	0.11353953
215	0x3d56be79	0.052427743
216	0x3d3e9731	0.046530906
217	0xbdf64266	-0.12024383
218	0x3e3ccc74	0.18437368
219	0x3e621551	0.22078444
220	0xbde9c008	-0.1141358
221	0xbf060983	-0.52358264
222	0xbdb5221f	-0.08844399
223	0x3d0b4cd1	0.034008805
224	0x3ea63923	0.32465467
225	0xbe6931e6	-0.22772941
226	0xbed6411a	-0.41846544
227	0x3db0d1b4	0.08633748
228	0xbd327130	-0.043564975
229	0xbe374b99	-0.17899932
230	0xbd02ffd5	-0.03198226
231	0x3d433426	0.047657155
232	0xbec90022	-0.39257914
233	0xbd98fd7a	-0.07470222
234	0xbd3dc91a	-0.046334364
235	0xbf17e290	-0.5933008
236	0x3c01a24e	0.007912232
237	0x3c735646	0.014852112
238	0xbc4ecf7c	-0.01262271
239	0xbce424cf	-0.027849583
240	0xbea05d28	-0.31321073
241	0x3e872f77	0.264034
242	0xbd5887d2	-0.052863903
243	0xbe73d504	-0.23811728
244	0x3d1d9b3e	0.03847813
245	0xbdad12f1	-0.084508784
246	0x3dc18ab5	0.094502844
247	0x3df28fc8	0.1184383
248	0x3e49588c	0.19662684
249	0xbe09ff4b	-0.13476293
250	0x3cf3e37a	0.029771555
251	0xbee29c2e	-0.4425978
252	0x3d54a88b	0.051918548
253	0x3e2354e5	0.15950353
254	0x3cc500b5	0.024048189
255	0x3d880415	0.066414036

linear1.bias f4 [200]
0	0x3d58d96b	0.05294172
1	0x3d0fe201	0.035127643
2	0x3e0c0fda	0.13677922
3	0x3d8caa5a	0.068684295
4	0x3daff73d	0.08592079
5	0xba31ce8b	-0.00067827915
6	0x3e051aa9	0.12998451
7	0xbc6721b9	-0.014107161
8	0x3e498759	0.19680537
9	0xbbd5b7f9	-0.0065221754
10	0x3d6a4405	0.057193775
11	0xbd09ee5e	-0.03367459
12	0xbc5d4aa3	-0.013506564
13	0x3d8fb124	0.07016209
14	0x3db6c76b	0.08924755
15	0x3e019a8c	0.12656611
16	0x3e083653	0.13301973
17	0xbd9ec1f1	-0.07751835
18	0x3ddfb8cb	0.10923918
19	0xbd588f0e	-0.052870803
20	0x3d83a036	0.06427042
21	0x3dd32f36	0.10311739
22	0x3e1463f0	0.14491248
23	0x3ceadf8b	0.028671047
24	0x3d2aba23	0.04168142
25	0xbce56f64	-0.028007217
26	0xbd6384f3	-0.055546712
27	0xbc630848	-0.013856955
28	0x3c51c5a2	0.012803467
29	0x3d83695b	0.06416579
30	0xbc341b0e	-0.010992778
31	0x3df2115a	0.11819716
32	0x3dd5925c	0.104283065
33	0x3db858c5	0.090013064
34	0x3cd4fc6e	0.025999274
35	0x3dbc55c3	0.09196045
36	0x3c473d8d	0.012160671
37	0x3d54b098	0.051926225
38	0x3d6d7c43	0.057979833
39	0x3d9e52cb	0.07730635
40	0x3d79f098	0.061020464
41	0x3c9df909	0.019283788
42	0x3df343e0	0.118781805
43	0x3d9fac80	0.07796574
44	0x3da95e2c	0.08269915
45	0x3d09f40f	0.033680018
46	0xbd603673	-0.054739427
47	0x3da06895	0.078324474
48	0xbc4ce681	-0.012506128
49	0x3b69c449	0.0035669974
50	0x3e1e9b65	0.15488966
51	0x3c28bb66	0.0102985855
52	0x3dcfb67e	0.101422295
53	0x3d9c9379	0.07645316
54	0x3d7146f1	0.058905546
55	0x3dfd39d4	0.123645455
56	0x3d9669e7	0.07344418
57	0x3d1faa7b	0.038980942
58	0x3d0b84ec	0.03406231
59	0x3d815e24	0.06316784
60	0xbdd1da7f	-0.10246753
61	0x3d3fe531	0.046849433
62	0x3db0eae0	0.08638549
63	0x3b3ff359	0.0029289334
64	0x3da05069	0.07827837
65	0x3d4d7191	0.050157133
66	0x3dcb1074	0.099152476
67	0x3d853e77	0.06506055
68	0x3d34bf41	0.044127706
69	0x3ce085f3	0.027407622
70	0x3d1d5c89	0.038418327
71	0x3dbbe691	0.091748364
72	0x3e9f9da3	0.31174955
73	0x3d8a7cd6	0.06762092
74	0x3d82511b	0.06363126
75	0x3d8c613d	0.06854484
76	0x3e07e834	0.13272172
77	0x3d4a284b	0.049354833
78	0x3c995c6e	0.018720832
79	0x3d559be5	0.052150626
80	0x3da0bcc1	0.07848502
81	0x3d209c0c	0.039211318
82	0x3e2f07aa	0.17092767
83	0x3ddc8304	0.10767177
84	0x3d65bbb7	0.056087222
85	0x3d11707a	0.035507657
86	0x3d86c56b	0.06580623
87	0x3d5847cc	0.052802846
88	0x3e28b4d1	0.16475226
89	0x3d93c3de	0.07215093
90	0x3d27d1e6	0.04097166
91	0x3d9eae4b	0.077480875
92	0x3cd2591a	0.025677253
93	0x3dd60f96	0.104521915
94	0xba154fc5	-0.00056957855
95	0x3d57a7f7	0.052650418
96	0x3d2ffebb	0.04296754
97	0x3e16f8cb	0.14743344
98	0x3d909606	0.07059865
99	0x3e923157	0.28553268
100	0x3ce79e2b	0.028273663
101	0xbc3c1125	-0.011478697
102	0xbcbb7d2d	-0.022886837
103	0x3d860b8e	0.06545173
104	0xbb9bcb38	-0.00475445
105	0xbdc758af	-0.09733712
106	0x3d73317e	0.05937337
107	0x3d2586b8	0.04041168
108	0x3d6c029a	0.05761967
109	0x3d789d12	0.06069667
110	0x3da1c574	0.07898989
111	0x3db0359f	0.086039774
112	0x3d0bac2b	0.03409974
113	0x3d613b8b	0.054988425
114	0x3dd3412b	0.10315164
115	0x3dd7447f	0.105111115
116	0x3de080f0	0.10962093
117	0x3d3a4b10	0.04548174
118	0x3ba5c75e	0.005059167
119	0x3e1fcbb5	0.15605052
120	0x3cca33b0	0.02468285
121	0x3db88fc6	0.090117976
122	0x3df42d1d	0.11922667
123	0x3d253de5	0.04034223
124	0xbc8da9b0	-0.017292827
125	0x3d9371fa	0.07199474
126	0x3ddaa277	0.10675519
127	0x3d391c97	0.04519328
128	0x3dfb4c96	0.12270467
129	0x3cee3711	0.029078992
130	0x3d52c736	0.051459514
131	0x3e0c76d6	0.13717207
132	0x3d8be461	0.06830669
133	0x3dc3561f	0.09537911
134	0x3ce5dc34	0.028059103
135	0x3d9a2df0	0.07528293
136	0x3d8fdecf	0.07024919
137	0x3cbe34cc	0.023218535
138	0x3cd5e2fc	0.026109211
139	0x3db69f6a	0.089171246
140	0x3da5d10a	0.08096512
141	0x3e015c3c	0.12632841
142	0x3d374d80	0.044751644
143	0x3d084fa9	0.033279095
144	0x3d620834	0.055183604
145	0x3d389343	0.045062315
146	0x3c698178	0.014252059
147	0x3d4a5c3b	0.049404364
148	0x3d75d38d	0.060016204
149	0x3d2b973f	0.041892286
150	0x3d8539e0	0.065051794
151	0x3d821647	0.06351905
152	0x3db07dc9	0.086177416
153	0x3d2e22ca	0.042513646
154	0x3c96552d	0.018351162
155	0x3d01c239	0.031679366
156	0x3e1c0a70	0.15238357
157	0x3d688179	0.0567641
158	0xb9dcdc94	-0.00042126013
159	0x3d33473c	0.043769106
160	0x3dacf93a	0.08445974
161	0xbd50a987	-0.050942924
162	0x3e1d4282	0.15357402
163	0x3d84d395	0.064856686
164	0x3d0427c0	0.03226447
165	0x3deda1aa	0.116031006
166	0x3dd56881	0.10420323
167	0x3d410ee3	0.047133338
168	0x3d7b3952	0.06133396
169	0x3dfeced7	0.12441795
170	0x3e4ee1ed	0.20203371
171	0xbc89accd	-0.01680603
172	0x3cd89070	0.02643606
173	0x3d6a37c2	0.05718208
174	0xbd9c8bf1	-0.07643879
175	0x3de6c402	0.11267854
176	0x3dfab7e5	0.12242106
177	0xbda7f736	-0.082014486
178	0x3d427f02	0.047484405
179	0x3d4ec78f	0.050483283
180	0x3d05f5bc	0.032705054
181	0x3d0b7bc3	0.034053575
182	0x3da81d87	0.08208757
183	0x3e076ddd	0.13225503
184	0x3d84b2b1	0.06479395
185	0x3d314a1d	0.04328357
186	0x3d5c26e0	0.05374801
187	0x3d33c1fa	0.043886162
188	0x3c620aba	0.013796503
189	0x3ccddb60	0.02512902
190	0xbd7183fa	-0.058963753
191	0x3d91898f	0.07106315
192	0x3df67723	0.12034442
193	0x3e3ad4cd	0.1824524
194	0x3dc52dbc	0.09627864
195	0x3d34dceb	0.044155996
196	0xbae996d1	-0.0017821436
197	0x3d55cadf	0.052195426
198	0x3d2f48e9	0.042794142
199	0x3e130314	0.14356643

linear2.weight f4 [200, 200]
0	0x3e7beb96	0.24601588
1	0xbe31f868	-0.17379916
2	0xbd8b9fd5	-0.06817595
3	0xbdaecb9a	-0.08534928
4	0xbde991d6	-0.11404769
5	0xbba857f6	-0.005137439
6	0xbc3d025d	-0.011536208
7	0x3e32bda0	0.17455149
8	0xbbb8c994	-0.0056392644
9	0x3b35976f	0.002770867
10	0x3e297f99	0.16552581
11	0xbec5d867	-0.38641664
12	0x3e01c78e	0.1267378
13	0x3e0c4d6e	0.13701412
14	0x3d9ba8a3	0.07600524
15	0x3de30d7a	0.11086555
16	0x3d21f782	0.039542682
17	0x3e7e7951	0.24850966
18	0x3da86f81	0.08224393
19	0x3ebf31fa	0.37342817
20	0xbd16f8e6	-0.03685846
21	0x3e3b7ed7	0.18310104
22	0x3e66a248	0.22522843
23	0x3d0f5880	0.03499651
24	0x3d8ea98f	0.069659345
25	0x3e8252fc	0.25453937
26	0x3e2f3d1f	0.1711316
27	0x3c9fae55	0.019492308
28	0xbca817f2	-0.02051923
29	0xbdd9e5f0	-0.1063956
30	0xbcebb89c	-0.028774552
31	0x3e987ff4	0.2978512
32	0x3e2b711e	0.1674237
33	0xbde77ede	-0.11303495
34	0x3c271fb8	0.010200433
35	0xbd9cc839	-0.07655377
36	0x3db53f94	0.08850017
37	0xbd0a1d09	-0.033719096
38	0xbe346ba3	-0.17619185
39	0xbe1bbcf3	-0.15208797
40	0x3e6a5c7f	0.22886847
41	0x3d28d73b	0.041220885
42	0x3d38e49f	0.045139905
43	0xbe4ce491	-0.20009066
44	0xbda96cbb	-0.08272692
45	0xbd53f21e	-0.051744573
46	0x3dc77712	0.09739508
47	0x3cf84f94	0.030311383
48	0xbd1014bb	-0.03517602
49	0x3dfaa134	0.12237778
50	0x3d97dbe6	0.07414989
51	0x3ce65f67	0.028121663
52	0xbd27bf11	-0.0409537
53	0xbdd85700	-0.10563469
54	0x3db33af7	0.08751481
55	0xbea706e7	-0.32622454
56	0x3d2be27d	0.041964043
57	0x3e03be32	0.12865523
58	0xbe3f66fc	-0.18691629
59	0xbdd2b474	-0.10288325
60	0xbe9bd689	-0.30437115
61	0x3e1b6d83	0.15178494
62	0xbe1ab7a6	-0.15109119
63	0x3cae0651	0.021243246
64	0x3e30f4b9	0.17280854
65	0x3df1e994	0.118121296
66	0xbe0b7796	-0.13619837
67	0xbd4a3a29	-0.049371872
68	0x3df475e3	0.119365476
69	0x3e122d0b	0.14274995
70	0x3e46ae00	0.19402313
71	0x3e8f0538	0.2793367
72	0xbec7829f	-0.38966843
73	0xbdb8d5c5	-0.09025148
74	0x3dc9e508	0.09858137
75	0x3ded06a2	0.11573531
76	0x3e69dbd8	0.2283777
77	0xbda0f104	-0.0785847
78	0x3d82a9ac	0.063800186
79	0x3e653ff7	0.22387682
80	0x3e1e6714	0.15469009
81	0xbd30811b	-0.043091875
82	0xbce47ad2	-0.027890597
83	0x3e9aaffd	0.30212393
84	0xbcdc93b2	-0.026925895
85	0x3e7b89a1	0.2456422
86	0x3d48726f	0.048937257
87	0xbe0c0e00	-0.13677216
88	0x3d8224e0	0.063546896
89	0xbe8a48ca	-0.2700866
90	0xbd3222bb	-0.043490153
91	0xbc1f3c64	-0.009718988
92	0xbda1916d	-0.07889066
93	0x3e8d2957	0.27570602
94	0xbaf28997	-0.001850414
95	0x3e60a1c3	0.21936707
96	0xbe4cd9d0	-0.20004964
97	0x3ecd66b2	0.40117413
98	0xbc89023d	-0.0167247
99	0xbd917fd0	-0.071044564
100	0x3e8338af	0.25629184
101	0xbda9fb3a	-0.08299871
102	0xbd760d4d	-0.06007128
103	0x3ccc66c4	0.024951346
104	0xbdff8e05	-0.1247826
105	0x3d9cd751	0.07658256
106	0x3d92892b	0.07155069
107	0x3d9099b6	0.07060568
108	0x3e86b874	0.26312602
109	0x3d15c798	0.0365673
110	0xbdf47d20	-0.11937928
111	0x3dc8e3b6	0.098090574
112	0xbbece3ea	-0.007229318
113	0xbd627d18	-0.05529508
114	0x3ecc94b4	0.399572
115	0x3e8e994c	0.2785133
116	0x3e1ed402	0.15510562
117	0x3e049fc9	0.12951578
118	0xbc5df67f	-0.013547539
119	0x3da49b95	0.080374874
120	0xbd82ea5c	-0.06392357
121	0xbe05eb69	-0.13078083
122	0xbd8eacf8	-0.06966585
123	0x3e1296e1	0.14315368
124	0xbe0e9c09	-0.1392671
125	0xbe2c66c1	-0.16836073
126	0x3e4cddee	0.20006534
127	0xbe0d36cb	-0.13790433
128	0x3cd1365d	0.025538618
129	0x3d0881ba	0.033326842
130	0xba97aab1	-0.0011571256
131	0x3e6753f6	0.22590622
132	0x3e73f5cf	0.23824237
133	0xbebb201f	-0.36547944
134	0xbd0b8235	-0.034059722
135	0xbd0e2e9a	-0.03471241
136	0x3e9206a8	0.28520703
137	0x3dedbaa4	0.116078645
138	0xbb940c3b	-0.0045180595
139	0x3c215b89	0.009848484
140	0x3e974acd	0.29549256
141	0xbddba496	-0.10724752
142	0x3e72ec22	0.2372289
143	0xbdcc775b	-0.09983703
144	0xbd86427f	-0.06555652
145	0x3dd29c97	0.102837734
146	0xbd2ca323	-0.042147767
147	0xbd6d681d	-0.05796062
148	0x3c94af75	0.01815007
149	0x3e6828f8	0.22671878
150	0x3e2a226e	0.16614696
151	0x3db1f431	0.08689154
152	0x3cf16c54	0.0294706
153	0x3ebd1df3	0.36936912
154	0x3e888a1a	0.26667863
155	0x3ea7fc80	0.3280983
156	0x3ea3c0c2	0.31983
157	0xbe8f35e4	-0.27970803
158	0xbe1ea884	-0.15493971
159	0x3dcf6982	0.10127546
160	0xbca9ef28	-0.020743921
161	0x3e7c62b6	0.2464703
162	0x3e19a83e	0.15005586
163	0xbdd13f96	-0.10217206
164	0x3e9f9620	0.31169224
165	0x3e8f2529	0.27958038
166	0xbe008a77	-0.1255282
167	0x3dc297c0	0.095016
168	0x3d8b9759	0.06815977
169	0x3c65a523	0.014016422
170	0xbd0f942d	-0.03505342
171	0xbce8f257	-0.02843587
172	0x3dda6403	0.10663607
173	0xbd80e804	-0.062942535
174	0x3d160c13	0.03663261
175	0xbe06ebb0	-0.13175845
176	0xbefbead8	-0.4920261
177	0x3e600eff	0.2188072
178	0x3deea080	0.11651707
179	0x3dbfa511	0.09357656
180	0xbca35606	-0.01993848
181	0x3d924f39	0.07144017
182	0x3ca83ce4	0.020536847
183	0xbd8668a0	-0.065629244
184	0xbda5cd4b	-0.08095797
185	0x3d9fde3e	0.07806061
186	0x3d9929b9	0.07478661
187	0x3e10379f	0.14083718
188	0x3d65fba3	0.056148183
189	0x3e2797ae	0.16366455
190	0x3c9e9c14	0.019361533
191	0x3e194dd7	0.149711
192	0xbed0ece0	-0.4080572
193	0xbda993e9	-0.08280165
194	0x3e26f246	0.16303357
195	0xbd6755da	-0.05647836
196	0x3cbc9e94	0.023024835
197	0x3e8567ee	0.26055855
198	0xbd8dd3ad	-0.069251396
199	0x3e67108d	0.22564907
200	0x3b52b28b	0.0032149877
201	0x3dd52f77	0.10409444
202	0x3e486617	0.19570194
203	0x3d89741b	0.067115985
204	0x3e04ce6e	0.12969372
205	0xbcd653e0	-0.026163042
206	0xbb3fa6c6	-0.0029243692
207	0xbe03b2cf	-0.12861179
208	0x3e233086	0.15936479
209	0xbd698941	-0.05701566
210	0x3e2cda94	0.16880256
211	0x3d9319f4	0.071826845
212	0xbc57bf58	-0.0131681785
213	0x3ce8cc73	0.028417801
214	0xbd1d932b	-0.03847043
215	0x3d22aff2	0.039718576
216	0xbcc95a1f	-0.024579106
217	0xbe52f471	-0.2060106
218	0xbdbbb790	-0.09165871
219	0xbdbcdec3	-0.09222176
220	0x3d78e046	0.06076076
221	0x3d832f0b	0.06405457
222	0x3d1417f6	0.036155663
223	0x3dae8b3a	0.08522649
224	0xbe076963	-0.13223796
225	0x3d7e3a02	0.06206704
226	0xbdc20cbb	-0.094750844
227	0x3c79fb07	0.0152576035
228	0x3ca05e9a	0.01957636
229	0x3ca3b670	0.019984454
230	0x3d82338d	0.06357489
231	0x3bd5ec9c	0.00652845
232	0xbe275c05	-0.16343696
233	0x3c81b658	0.015834019
234	0x3df06597	0.11738127
235	0x3cd243a2	0.025667015
236	0x3df10207	0.11767965
237	0xbe3f7594	-0.18697196
238	0x3bfd10e3	0.0077229603
239	0xbdc1242b	-0.094307266
240	0xbd73eca0	-0.059551835
241	0xbd0ec141	-0.03485227
242	0x3d50537d	0.05086087
243	0xbd7c3852	-0.06157715
244	0x3dc74f5e	0.09731935
245	0xbe37d0e7	-0.17950784
246	0x3dab4214	0.08362213
247	0xbdc200bf	-0.094727986
248	0xbd07c560	-0.033147216
249	0x3e19e828	0.15029967
250	0x3e01f058	0.1268934
251	0x3e2e9067	0.17047273
252	0x3d1556d0	0.036459744
253	0xbc68c7a8	-0.014207758
254	0xbdf1e399	-0.11810989
255	0x3d6edb85	0.05831482

linear2.bias f4 [200]
0	0x3d3cb796	0.04607352
1	0xba674e4d	-0.00088236184
2	0xbc43c6db	-0.011949266
3	0x3cbcdfb5	0.02305589
4	0xbbd8736c	-0.0066055562
5	0x3cadbc3f	0.021207927
6	0xbc2d95c9	-0.010594794
7	0x3d9e6b93	0.07735362
8	0x3cfeeaa7	0.03111775
9	0x3cb7fa6d	0.02245828
10	0x3acf11f8	0.0015798202
11	0x3ca89445	0.020578513
12	0x3ccefd0c	0.025267147
13	0x3cd47658	0.025935337
14	0xbcb95025	-0.022621224
15	0x3cb6555d	0.022257501
16	0x3b0bf34e	0.0021354738
17	0x3d9d80e2	0.07690598
18	0x3f0604a6	0.5235084
19	0x3dde3955	0.10850779
20	0x3d362d02	0.044476517
21	0x3d048f71	0.03236336
22	0x3d444a5f	0.04792249
23	0x3d8f0a94	0.069844395
24	0xbc8a0376	-0.016847353
25	0x3cb3a3a3	0.021928614
26	0x3b1e587a	0.0024161623
27	0x3cb12b50	0.021627098
28	0x3d28a22b	0.04117028
29	0x3d266f39	0.040633414
30	0x3d043844	0.03228022
31	0x3ca9f2ac	0.020745598
32	0x3ccd3cc5	0.025053391
33	0xbc1a207d	-0.00940716
34	0xbb7808bc	-0.0037847003
35	0x3d161d3f	0.036648985
36	0x3d0b557c	0.03401707
37	0x3d235987	0.0398803
38	0xbcb4e4ae	-0.0220817
39	0x3cc718f0	0.024303883
40	0x3cccb73a	0.024989713
41	0xbc5bf3af	-0.013424798
42	0x3e2994d9	0.16560687
43	0x3cb78bf2	0.022405598
44	0xbca42eb3	-0.0200418
45	0x3cd5d65f	0.026103197
46	0x3d829108	0.06375319
47	0x3cddfc0b	0.027097723
48	0x3ce1e9f1	0.027577372
49	0x3d07b691	0.033133093
50	0x3ca22129	0.019791203
51	0xbc51f983	-0.012815836
52	0x3cce8792	0.02521113
53	0xbb5bee38	-0.0033558737
54	0x3d173997	0.036920156
55	0xbc5c5c17	-0.01344969
56	0x3c99b21f	0.018761693
57	0xbc10bb8b	-0.008833776
58	0xbca9cae0	-0.020726621
59	0x3cb6313b	0.022240272
60	0xbc275b68	-0.010214664
61	0xbbfe318a	-0.0077573704
62	0x3ce53525	0.027979443
63	0x3c951447	0.018198146
64	0xbc742c41	-0.014903129
65	0x3c9d0d81	0.019171478
66	0x3a3c71d1	0.0007188591
67	0xbc5fa7a1	-0.013650806
68	0x3c92ff85	0.017944107
69	0x3d0642ec	0.032778665
70	0x3cd07e00	0.025450706
71	0x3ebcfe27	0.36912653
72	0x3ced416a	0.028961856
73	0x3ce0ba76	0.027432662
74	0xbbf489fe	-0.007462739
75	0x3ce1aadf	0.027547298
76	0x3cc656e4	0.024211355
77	0x3d072c71	0.033001367
78	0x3e55a4cc	0.20863646
79	0x3b82d864	0.003993081
80	0xbc662870	-0.014047727
81	0xbc1e2cfb	-0.009654279
82	0x3ce320bf	0.027725575
83	0x3c9aecf3	0.018911814
84	0x3ccd548c	0.02506473
85	0x3cf4288f	0.029804496
86	0xbbd190b8	-0.0063954256
87	0xba20474f	-0.00061141414
88	0xbbf82d75	-0.0075737783
89	0x3d050130	0.032471836
90	0x3c9717a1	0.018443884
91	0xbc81ad9e	-0.015829857
92	0x3cc8e8a8	0.024525002
93	0xbc6df8ca	-0.014524648
94	0x3b893d54	0.004188219
95	0x3eae2a78	0.34016776
96	0x3df3d7af	0.11906373
97	0xbc0c77bb	-0.008573468
98	0xbd5581ce	-0.052125745
99	0x3cba383d	0.022731895
100	0x3d070dcc	0.032972142
101	0x3d29d04b	0.04145841
102	0x3cc306c6	0.02380694
103	0x3d031c45	0.03200938
104	0xbbce9406	-0.006304267
105	0x3cbd58e3	0.023113674
106	0xbc436ca3	-0.0119277565
107	0x3d2e191c	0.042504415
108	0x3c9cf5a6	0.019160103
109	0x3cc66808	0.024219528
110	0xbc94e3df	-0.018175064
111	0xbd24b6e2	-0.040213473
112	0x3bc20770	0.005921297
113	0xbb8949dd	-0.0041897134
114	0xbbb748b7	-0.005593385
115	0x3ce68c20	0.028142989
116	0x3c3b2bcf	0.011424019
117	0x3d15d0ae	0.036575966
118	0x3cb1c35f	0.021699606
119	0x3d5dabdc	0.054118976
120	0xbca2e4c7	-0.01988448
121	0x3cae9cfe	0.021315094
122	0x3d0c506b	0.03425638
123	0x3ccfa038	0.025344953
124	0xbc987ed8	-0.018615171
125	0x3d4b1fd9	0.04959092
126	0xbc660e7f	-0.014041542
127	0xbc828858	-0.015934154
128	0xbc7724e6	-0.015084481
129	0x3d133284	0.035936847
130	0x3cc6e5d5	0.024279514
131	0x3cb024cb	0.02150192
132	0x3d62d1cb	0.055375855
133	0x3cd32360	0.025773704
134	0x3caa870b	0.020816347
135	0xbc423eac	-0.011855762
136	0x3cde6622	0.02714831
137	0x3cc86619	0.024462746
138	0x3bd6c206	0.006553891
139	0x3d423b48	0.047419816
140	0x3c98284b	0.0185739
141	0x3d1abdf0	0.037778795
142	0xbbae4989	-0.0053188247
143	0x3d065db3	0.032804202
144	0x3ad3c03e	0.0016155315
145	0x3ca59c2e	0.020216074
146	0x3d1ae55f	0.0378164
147	0x3d38d269	0.045122538
148	0xbb419d21	-0.002954312
149	0x3ec3a2b0	0.38210058
150	0x3d1008eb	0.035164755
151	0x3cc3ac50	0.023885876
152	0xbbce0fa6	-0.0062884865
153	0x3d0c84e4	0.034306422
154	0x3cb737fc	0.022365563
155	0x3cbf9acb	0.02338924
156	0xbc599880	-0.013280988
157	0x3c614b50	0.013750866
158	0xbc41a4f7	-0.011819116
159	0xbaae4457	-0.0013295513
160	0x3ce2d7e0	0.027690828
161	0x3e947fa6	0.29003638
162	0xbc885aed	-0.01664492
163	0x3ce1c4e1	0.0275597
164	0x3cd21297	0.02564363
165	0x3c9fb7b7	0.019496782
166	0x3ca46ee6	0.020072412
167	0x3cca621d	0.024704987
168	0x3d68fcf4	0.05688186
169	0x3d02b130	0.03190726
170	0x3f08ce2e	0.53439605
171	0x3cd24ac9	0.025670426
172	0x3d0f6625	0.035009522
173	0xbc6b14b2	-0.014348196
174	0x3ca5aa39	0.02022277
175	0x3ca963d0	0.020677477
176	0x3d9c9990	0.07646477
177	0x3d05f8cf	0.032707985
178	0x3c9a0c12	0.018804584
179	0xbc869a8f	-0.016431121
180	0x3c9c5f5b	0.019088438
181	0x3c945e77	0.01811145
182	0xbb97ac2e	-0.0046286797
183	0x3d00c6ba	0.03143952
184	0xbc185ee3	-0.0092999665
185	0xbc60554e	-0.013692213
186	0x3ce1c976	0.027561884
187	0x3ce0dbaf	0.027448503
188	0x3ca0f95f	0.01965016
189	0xbc155864	-0.009115312
190	0x390fb30b	0.00013704241
191	0x3cd4681d	0.025928551
192	0x3ceb2e7c	0.028708689
193	0xbab7408f	-0.0013981032
194	0x3c9bda36	0.01902495
195	0x3cfdb4fa	0.030970085
196	0xbc290089	-0.010315069
197	0x3cbf6511	0.023363622
198	0x3cb14792	0.021640573
199	0x3d147efb	0.03625391

linear3.weight f4 [1, 200]
0	0xbdc18036	-0.094482824
1	0x3dbfc8e2	0.09364487
2	0x3dc49223	0.09598186
3	0xbe8fb111	-0.28064778
4	0x3e09781d	0.13424726
5	0xbdeed5ba	-0.11661859
6	0x3dda3c44	0.10656026
7	0x3f65b13e	0.89723575
8	0xbe0b1c0f	-0.13584922
9	0x3e8f4c1e	0.2798776
10	0x3e33d064	0.17559963
11	0xbd368662	-0.04456175
12	0xbd859c38	-0.06523937
13	0xbe473f58	-0.19457757
14	0x3e164122	0.14673284
15	0xbde0310b	-0.10946854
16	0x3e8688df	0.262763
17	0x3f8e122a	1.1099293
18	0x3fa20a6f	1.2659434
19	0x3f7ce346	0.9878429
20	0xbf2fda38	-0.6869235
21	0x3ed6f664	0.41984856
22	0xbf2fdbf1	-0.6869498
23	0x3f787709	0.97056633
24	0x3e00185f	0.12509297
25	0xbd42db53	-0.047572445
26	0x3eaf5a68	0.34248662
27	0xbdb99a91	-0.09062684
28	0xbef95662	-0.48698717
29	0xbe4f7c73	-0.20262317
30	0xbe4ac2be	-0.19800851
31	0xbddf151b	-0.108926974
32	0xbd9b62bb	-0.07587191
33	0x3e2a4cb2	0.1663082
34	0x3dd5b565	0.10434989
35	0xbeb53c3c	-0.35397518
36	0xbe8e7c90	-0.2782941
37	0xbeb4e3bd	-0.3533
38	0x3d79d055	0.060989697
39	0xbe40e726	-0.18838176
40	0xbe0e03f7	-0.138687
41	0x3e1eee98	0.15520704
42	0x3fa86659	1.3156234
43	0xbd947e80	-0.072506905
44	0x3e311e0b	0.17296617
45	0xbe15ac8b	-0.14616601
46	0x3fa79604	1.3092656
47	0xbe81e224	-0.25367844
48	0xbe76a8b8	-0.24087799
49	0xbe1f5e93	-0.15563421
50	0xbe50ce83	-0.20391278
51	0x3cb7171c	0.022349887
52	0xbe3a78f3	-0.18210201
53	0x3dd258ff	0.10270881
54	0xbe5be5d7	-0.21474396
55	0x3ef1a952	0.47199494
56	0xbe13ca4d	-0.1443264
57	0x3e871509	0.26383236
58	0x3d8001b5	0.062503256
59	0xbe5b25c3	-0.21401124
60	0x3e36782e	0.17819282
61	0x3dec160e	0.11527644
62	0xbe239201	-0.15973665
63	0xbe28c1a2	-0.16480115
64	0x3d9bd7f7	0.076095514
65	0xbe68c426	-0.22731075
66	0x3ea619c5	0.32441536
67	0x3e5f2720	0.21792269
68	0xbe52a4a4	-0.20570618
69	0xbe4295d1	-0.19002463
70	0xbe78780e	-0.24264547
71	0x3faf16c6	1.3678825
72	0xbe83edca	-0.25767356
73	0xbde28ad0	-0.11061633
74	0x3e0b5f56	0.13610587
75	0x3e59e401	0.21278383
76	0xbe041641	-0.12899114
77	0xbe31f622	-0.17379048
78	0x3fb6fd9e	1.4296148
79	0x3e864d1e	0.2623071
80	0x3e3af165	0.18256147
81	0x3e7806da	0.24221364
82	0xbdfabded	-0.12243257
83	0xbdd0d899	-0.10197563
84	0xbe0b8bd7	-0.13627563
85	0xbea57501	-0.3231583
86	0x3e647655	0.22310765
87	0x3dffbbc3	0.124869846
88	0x3dd8f724	0.10594013
89	0xbe589d14	-0.2115367
90	0xbe583abd	-0.21116157
91	0x3d7f0d3d	0.062268484
92	0xbe89ac26	-0.2688915
93	0x3e6b32c5	0.22968586
94	0x3e3c7b03	0.184063
95	0x3fa1d7e3	1.2644008
96	0x3fa94017	1.3222684
97	0x3e4c3830	0.19943309
98	0x3e4773e2	0.194778
99	0xbd6caf4c	-0.057784364
100	0xbe3adc85	-0.18248184
101	0x3eb57207	0.35438558
102	0xbdbdfba2	-0.09276511
103	0xbdff5cbc	-0.124688596
104	0x3ef3e7a1	0.47637656
105	0xbdbb7ffc	-0.091552705
106	0x3dac877e	0.084242806
107	0xbe89db21	-0.26924995
108	0xbe8389f0	-0.25691175
109	0xbdb5cec8	-0.08877331
110	0x3ded9df7	0.11602395
111	0x3d0ef73d	0.034903754
112	0x3e7ceaa9	0.24698891
113	0x3df4ed3c	0.11959311
114	0x3c442335	0.011971285
115	0xbd4bc787	-0.04975083
116	0x3e8cc18a	0.2749141
117	0xbe7ea1ec	-0.24866456
118	0xbd852ea7	-0.06503039
119	0xbf479772	-0.7796546
120	0x3ea4f1c9	0.32215717
121	0xbdb5435d	-0.08850739
122	0xbdec47ef	-0.11537158
123	0xbdbc1ea6	-0.09185533
124	0x3de458dd	0.11149762
125	0x3f7c7123	0.9861013
126	0x3e136d88	0.14397252
127	0x3f3ab66d	0.7293461
128	0x3da43503	0.08017924
129	0xbedd866b	-0.43266615
130	0xbe2162ab	-0.15760295
131	0xbe0e0d87	-0.13872348
132	0xbf6a947a	-0.9163281
133	0xbdc38a2c	-0.095478386
134	0xbdffc794	-0.124892384
135	0x3d217771	0.03942055
136	0xbe0c1e06	-0.13683328
137	0xbec5a43b	-0.3860186
138	0x3e9e207b	0.30884156
139	0x3ebf8142	0.37403303
140	0xbdd2a807	-0.10285955
141	0xbeba4980	-0.363842
142	0x3e0c2153	0.13684587
143	0xbe4d7653	-0.20064668
144	0x3e5c499c	0.21512455
145	0xbe0fdc68	-0.14048922
146	0xbed556e6	-0.4166786
147	0xbf308895	-0.6895841
148	0x3e45c843	0.19314675
149	0x3fa6f264	1.3042722
150	0xbec196d5	-0.37810388
151	0xbdd2c551	-0.10291541
152	0x3e570fdc	0.21002144
153	0xbefe7e68	-0.49705815
154	0xbd63cb49	-0.05561379
155	0xbe1215f9	-0.14266194
156	0x3da87fb7	0.08227485
157	0x3e83f3bd	0.25771895
158	0x3dd40f2f	0.103544585
159	0x3e051b21	0.1299863
160	0xbe13d6b3	-0.1443737
161	0x3fa43ada	1.283046
162	0x3e204773	0.15652256
163	0x3f30dd5f	0.69087785
164	0xbe31e856	-0.17373785
165	0xbdf383e1	-0.11890388
166	0xbdf852a2	-0.12125136
167	0xbe671f06	-0.22570428
168	0x3f9d846e	1.2306039
169	0xbe643c93	-0.22288732
170	0x3f943211	1.1577779
171	0xbe1edf3c	-0.15514845
172	0xbe9de716	-0.30840367
173	0x3e86f980	0.26362228
174	0xbdbf42ec	-0.09338936
175	0xbd3cfa3f	-0.04613709
176	0xbf82f79f	-1.0231818
177	0xbe354767	-0.17703019
178	0xbd0849a0	-0.03327334
179	0x3de845be	0.11341427
180	0xbe3e1b95	-0.18565209
181	0xbdb73ad5	-0.08946768
182	0x3e3a0acd	0.18168183
183	0xbd7830a4	-0.060593262
184	0x3cc38316	0.023866218
185	0x3de6d70f	0.11271488
186	0xbe44c3db	-0.19215338
187	0xbe3ef1fc	-0.18646997
188	0xbe126910	-0.1429789
189	0x3d4bf147	0.049790647
190	0x3e444107	0.19165431
191	0xbe19952c	-0.14998311
192	0xbe4eb9b8	-0.20188034
193	0x3e196300	0.14979172
194	0xbdef65c5	-0.11689333
195	0xbe9cfcf0	-0.30661726
196	0x3e391daf	0.1807773
197	0xbdbaf445	-0.09128622
198	0xbd22fda5	-0.039792676
199	0xbe89d290	-0.2691846
