Downloads/All_in_pytorch 2/Models/Expe3/best_model_train.pth (torch, 283736 bytes, 3 tensors)

linear1.weight f4 [200, 350]
000000 39 ac fe 3e 89 20 00 bf 2f 11 09 bf a6 d7 15 bf
       0.4974077 -0.50049645 -0.53541845 -0.5853218
000010 6b 75 d0 bc 0e 0d 22 3f b9 fb 02 3f df 2c 34 3f
       -0.025446614 0.6330117 0.5116535 0.7038097
000020 94 76 06 bd 75 2c a9 bd c8 ea 88 bd a7 16 c8 bd
       -0.03282793 -0.08260433 -0.06685406 -0.097699456
000030 6b cd 10 bf ce c5 1c 3f d9 9d a4 3e c7 1a 52 bf
       -0.5656344 0.61239326 0.32151678 -0.8207211
000040 af ce 43 bf 79 9d 70 3d a9 23 8b 3d c7 ce 24 be
       -0.7648725 0.058743928 0.06793911 -0.16094504
000050 d8 a2 fa 3e cc bd 4f bd 3e 5a 33 bd 8b 41 b3 3e
       0.48952365 -0.050718114 -0.043787234 0.35010943
000060 48 12 0b be a0 c3 9a 3e 42 41 23 3e 4e 6e 16 bf
       -0.13581192 0.30227375 0.15942863 -0.5876206
000070 0e 4b 37 3f 11 c5 13 3f 9f 7c 72 3e 91 db b9 be
       0.715989 0.57722574 0.23680352 -0.36300328
000080 ee b4 f0 3e 54 9e 23 3f ab 6a 90 be 83 34 26 bf
       0.47013038 0.63913465 -0.2820638 -0.64923877
000090 dd 47 2c 3e ce e5 e8 3e a4 a8 2c 3c f1 d9 9a 3e
       0.16824289 0.45487827 0.010538254 0.302444
0000a0 e5 a6 b1 3e c7 16 52 3d 28 ab 15 3f e9 8a db 3e
       0.34697643 0.051291253 0.5846429 0.42879418
0000b0 b3 21 34 be b0 f7 40 be ea ec 97 3e c7 94 f9 3e
       -0.1759098 -0.18844485 0.2967294 0.4874632
0000c0 ae 66 09 3f 79 5d a7 be c1 77 65 3f 91 02 51 be
       0.536723 -0.326885 0.89635855 -0.20411135
0000d0 7c e8 8b be b5 a2 8f bd f9 78 14 3f f8 5d 9b bc
       -0.2732581 -0.07013456 0.5799709 -0.018965706
0000e0 06 c1 31 3f 18 34 a5 be 21 68 60 bf 5f 87 b1 3e
       0.69435155 -0.32266307 -0.8765889 0.34673592
0000f0 a8 55 c9 3e b5 04 19 bf 1c b2 1d 3f 61 a9 36 be
       0.39323163 -0.5977281 0.615999 -0.1783805
000100 56 36 2e 3d fa 07 aa 3e f6 32 5b 3e 29 9f 74 3f
       0.042532288 0.3320921 0.21406159 0.9555536
000110 84 8e dc 3e 91 7c 48 3e 42 ca 3f 3f a3 6f fc be
       0.4307748 0.19578768 0.74917996 -0.49303922
000120 20 d7 f4 3e 87 58 1b bf 58 87 73 3f 8d 4c 2f bd
       0.47820377 -0.60681957 0.95128393 -0.042797614
000130 90 5c 72 3e f5 6e 06 bf 58 3d 15 be a8 eb cf be
       0.23668122 -0.52513057 -0.14574182 -0.4060948
000140 a6 1f 8e be 2c 73 bb 3d bf 51 bd 39 be 70 ef be
       -0.2775852 0.09152827 0.00036109795 -0.46765703
000150 45 95 f1 be 47 7f ff bc 3c 08 8e 3d 76 fe 75 be
       -0.47184196 -0.03118862 0.06935164 -0.2402285
000160 50 ab 16 3f e3 fe 35 3e a8 35 00 3f 98 d3 52 3f
       0.5885515 0.17773013 0.5008187 0.82354116
000170 03 1a a5 3e fe 02 40 3e d7 79 06 be db 65 fa bd
       0.32246408 0.18751141 -0.13132416 -0.12226459
000180 60 a4 d3 3e 4f 98 2b 3d 21 b7 ff be 50 bc 9b 3d
       0.41336346 0.0418933 -0.49944404 0.07604277
000190 d5 ce 5d bf 7f be 45 be 72 17 e2 be 1b 86 ed 3d
       -0.86643726 -0.1931095 -0.44158512 0.11597844
0001a0 92 d3 1a 3f 3a fb ae 3e 79 16 8a be 6f df 84 be
       0.6047908 0.34176046 -0.2697027 -0.25951716
0001b0 c8 c1 09 3f 82 24 b3 3e 98 52 ca bd 0d e4 b2 3e
       0.5381131 0.3498879 -0.09879035 0.34939614
0001c0 e4 f7 06 be 8e 1a 22 3f 17 a0 e6 3e 63 db 11 3f
       -0.131805 0.6332177 0.45044014 0.5697538
0001d0 59 91 04 3f fe 5b c9 3b 41 ea e9 be 5c 16 11 bd
       0.5178428 0.0061449995 -0.45686534 -0.035421714
0001e0 5a d7 88 3c 6d 1c 18 3e 89 49 bd be f7 e0 fe 3e
       0.01670425 0.14854594 -0.36970165 0.4978101
0001f0 a9 85 01 bf ae 82 73 3e d7 2b 11 bd 9a 08 4f be
       -0.50594574 0.23780319 -0.0354422 -0.20218125
000200 2d f0 44 be 08 9f 46 3e ba 26 20 3f 5e 91 07 3f
       -0.19232245 0.19396603 0.6255909 0.5295619
000210 7a 7b 49 3f 4a 26 47 bf 84 31 c1 be e4 1d 19 be
       0.78704035 -0.777928 -0.3773309 -0.14952809
000220 54 65 7e 3e d7 d0 08 3d 68 4d 26 be ab bd de 3e
       0.24843341 0.03340229 -0.16240466 0.4350408
000230 0a 33 51 be fa d9 e0 bd f2 be 36 bf 57 ce 95 be
       -0.20429626 -0.10979076 -0.7138511 -0.29258987
000240 d5 b4 85 3e 4e 11 95 3e 25 1a cd be e9 2f 89 be
       0.26114526 0.29114765 -0.4005901 -0.26794365
000250 8b e9 58 be 1a d9 c5 3b 65 99 88 3e fc 7e df 3d
       -0.2118284 0.0060378434 0.2667953 0.10912892
000260 c6 a9 2f bd 00 3d 35 be ae 77 ab 3e 5d 01 9a bc
       -0.042886518 -0.17699051 0.33489746 -0.018799478
000270 de 2e e0 be e6 5d d6 be 89 93 05 bf 23 dd 83 be
       -0.43785757 -0.41868514 -0.52178246 -0.2575465
000280 21 2d 36 3f 80 4c f6 3d 27 aa 5e bf 14 db c2 be
       0.7116261 0.1202631 -0.8697838 -0.38057768
000290 dc 7b 8f 3e e6 d1 75 3e ae e7 50 3b 87 0f 33 3e
       0.28024185 0.24005851 0.0031876373 0.17486392
0002a0 74 a6 fc 3c 5e 93 e7 3d 1e b0 15 3e 17 5c 1e bf
       0.03084109 0.11307405 0.14617965 -0.6185927
0002b0 45 3a e9 bd 24 b2 37 be 9c 7a f7 3d 09 56 c3 3d
       -0.11388067 -0.17939049 0.12083933 0.09537894
0002c0 0c d9 20 bf 4e 1b f4 be 2e 02 01 3f 15 fe 19 be
       -0.6283119 -0.47677082 0.5039395 -0.15038331
0002d0 b7 e6 bb be 60 00 40 be cd 0d 85 3e 30 69 40 3e
       -0.3669946 -0.18750143 0.25987092 0.18790126
0002e0 e8 a8 8b 3c 32 c0 a2 bd 6c 5b 24 be 85 e2 e8 3e
       0.017048314 -0.079468146 -0.160505 0.4548532
0002f0 d3 48 9e be c6 b9 df 3e f9 3a df be d3 14 86 be
       -0.30914935 0.4369642 -0.4359968 -0.26187763
000300 75 84 e9 3e e6 f8 3b 3e cc d2 73 3e 88 3c b1 3c
       0.4560887 0.18356666 0.23810881 0.021635309
000310 fe f0 06 3e 8a d0 18 be 38 1e 9f be d5 40 39 3e
       0.13177869 -0.14923301 -0.31077743 0.18091138
000320 41 12 34 3e e2 a9 80 be 66 01 5d 3e 58 69 18 bf
       0.17585088 -0.2512961 0.21582565 -0.5953574
000330 aa 68 23 3e 19 02 94 3e 57 f3 45 be 46 48 ac 3d
       0.15957895 0.2890785 -0.19331108 0.084122226
000340 22 79 f8 3e 3c 44 8d 3c 2c e3 aa 3e 29 e7 61 be
       0.48529917 0.01724445 0.33376443 -0.22060837
000350 27 84 39 3d 8e de c8 bd 34 45 0f 3e ef 4f db 3e
       0.045292046 -0.09808074 0.13991243 0.42834422
000360 c8 f7 96 3e 37 43 f6 be 08 67 b5 3d d9 cf 16 bd
       0.29485917 -0.48098156 0.08857542 -0.036819313
000370 75 d0 6f 3e 77 fa fd bd 2e 7a 79 be 11 08 d3 be
       0.23419364 -0.12401288 -0.24363014 -0.41217092
000380 bf 07 2e bd d9 7a f9 be b0 85 97 be 9c 0a f1 bd
       -0.042487856 -0.48726538 -0.29594183 -0.11769602
000390 62 ba 39 bd c3 1c 59 3b ab e6 9d be db 22 26 bf
       -0.045343764 0.0033128716 -0.30840048 -0.64896935
0003a0 2a 08 1a 3e 60 0b 9d be ae 25 da be 03 5e 3e 3c
       0.15042177 -0.3067274 -0.42606872 0.011619094
0003b0 9a 8e 3f 3e 1b 45 2d 3e 5a 2f d2 bd a1 56 4e 3f
       0.18706742 0.16920893 -0.10262938 0.80600935
0003c0 67 f2 20 bf 1b bb d3 bd c1 bd 30 3e 03 66 e1 3b
       -0.62869877 -0.10338422 0.17259885 0.006878616
0003d0 ae 97 6f bd 12 1b b8 3e 48 c2 27 be fd 24 07 3f
       -0.058494262 0.35958153 -0.16382706 0.52790815
0003e0 2c 5e 4a bf 70 0d 77 be be 88 93 be 36 87 35 bc
       -0.79049945 -0.2412622 -0.28815264 -0.0110796
0003f0 8f 1d 11 3e 32 52 99 be 90 96 a9 bd f2 a8 3e be
       0.14171432 -0.29945523 -0.08280671 -0.18619135

linear1.bias f4 [200]
000000 c7 93 8c bc 46 fc 91 3d 8f 88 ec 3d 9e 7a af bc
       -0.01716031 0.071281955 0.11549484 -0.021420773
000010 dd b7 1f bd 30 c2 ae 3d c7 7f a5 3d ae b2 04 bd
       -0.038993705 0.08533132 0.08081012 -0.032396965
000020 dd 8d ac 3d 0c 26 92 3d 86 4f 10 bd 35 f2 9d 3d
       0.08425496 0.07136163 -0.03523209 0.07712213
000030 f9 34 ad bc 6e ae 46 bd 76 74 9e 3d 06 f9 c0 3d
       -0.021143423 -0.048506193 0.07737057 0.094224975
000040 84 db 7c 3d 9f 57 cf bc 2a 1d b5 bc 96 f8 94 3d
       0.061732784 -0.025310336 -0.022108633 0.072739765
000050 3f 67 81 bc 88 8d 0f 3a 62 ae e2 bc ba 6a a6 3d
       -0.015796302 0.0005476107 -0.027671043 0.08125825
000060 ff ff 9e bc 51 60 ab 3d b8 a5 99 3d e7 28 77 bd
       -0.019409178 0.0836798 0.075023115 -0.060341742
000070 59 b3 85 bc 72 f9 8e 3d d6 b3 c0 bc 3a e7 69 bd
       -0.016320871 0.06981172 -0.023523252 -0.05710528
000080 f7 de 88 bc 68 cc 90 3d 52 e5 9d 3d 25 08 90 be
       -0.01670788 0.070702374 0.07709755 -0.28131214
000090 83 27 e7 bc 11 68 37 bc 10 0e 8d bc 92 e8 4c bc
       -0.028217083 -0.011194245 -0.01721862 -0.012506621
0000a0 68 dd ba 3d ac 70 8c 3d e0 5c 99 bc 9e 91 47 be
       0.09124261 0.06857428 -0.018721044 -0.19489142
0000b0 21 04 86 3d f8 1f 98 3d 70 33 f2 bc 89 7c a7 3d
       0.06543756 0.074279726 -0.029565543 0.0817805
0000c0 06 ba 40 3c 72 65 36 bc 89 5b d9 bc 50 f8 d4 3d
       0.011763101 -0.011132585 -0.026532905 0.10398924
0000d0 ef 1f 8b bc 9f 2d 22 bd 1d b3 4f be 95 3a c4 3d
       -0.016983 -0.03959429 -0.2028317 0.09581486
0000e0 2f f3 4f be 50 06 b5 3d b4 d5 b0 3d a1 9c af 3d
       -0.20307611 0.08839095 0.08634511 0.085747965
0000f0 95 0c f2 bd e7 1d 57 bd 91 3c 97 3d 2b 5a a8 3d
       -0.11818806 -0.05251875 0.07384599 0.08220323
000100 63 de ad 3d 2c b9 b4 3d 98 a7 8b bc 12 21 86 3d
       0.084896825 0.08824381 -0.017047688 0.065492764
000110 c2 f3 b5 bc a9 2c 94 3d 2b 77 b6 3d ee 74 f0 bc
       -0.02221096 0.07235081 0.08909448 -0.029352631
000120 45 0d 9c 3d 02 9e a7 bd ad e0 89 bc 26 71 aa 3d
       0.076197185 -0.081844345 -0.016830767 0.083223626
000130 d2 65 e7 bc 65 21 9f 3d a1 56 a4 3d 53 80 d4 bd
       -0.028246794 0.077700414 0.08024336 -0.103760384
000140 0b c9 21 bd af bf 9f 3d b8 2b 23 bd 56 77 9f 3d
       -0.03949837 0.078002326 -0.039836615 0.077864334
000150 d5 c6 f4 bb 18 b2 97 3d dc c9 b0 3d 4d 35 dd 3d
       -0.0074699917 0.074070156 0.086322516 0.10801182
000160 fb 9e 05 3e 35 af a1 3d 76 e1 9d 3d e4 f3 a2 3d
       0.13048927 0.07894746 0.07709019 0.07956675
000170 73 92 44 bc bd c4 86 bd ee 42 bb 3d 01 2d cd 3d
       -0.011997807 -0.065804936 0.09143625 0.100183494
000180 1c e3 a0 3d 2d ff d0 3d 60 3c ac 3d 92 9d 8f 3d
       0.07855818 0.10204921 0.08409953 0.07012476
000190 b8 b9 b0 bc bb e9 27 bb a5 1a 8e 3d d2 44 f7 39
       -0.021572933 -0.0025621492 0.06938676 0.00047162786
0001a0 df 18 fd 3d 1a 07 9f 3d 78 ca 4d bc e3 e9 78 bc
       0.123582594 0.077650264 -0.012560479 -0.015192482
0001b0 fb 39 d4 3d 84 a2 4e bd 31 e0 b6 3d 03 26 be bc
       0.103626214 -0.050447956 0.0892948 -0.023211485
0001c0 f9 f5 9b 3d 2d 07 d0 bc 01 02 e2 3d 55 f7 9c 3d
       0.07615275 -0.025394047 0.110355385 0.07664362
0001d0 21 e0 5c bd 3f 07 ab 3d ad 88 05 bd eb 37 e6 3d
       -0.053924683 0.083509915 -0.032601047 0.11241134
0001e0 d6 48 b0 3d dc 0c b6 3d 8b 48 a3 3d e2 59 3b bd
       0.08607642 0.088891715 0.07972821 -0.045740016
0001f0 56 92 b1 bc 0e 10 a4 3d 85 28 5b bc a0 9c c8 bc
       -0.021676224 0.08010875 -0.01337636 -0.024488747
000200 8f 88 f4 3d 7f 48 bc 3d d6 ba 61 3c f6 cd 91 3d
       0.11940109 0.09193515 0.013777455 0.07119362
000210 02 bd 93 bc e1 d7 c4 bc 2a 0c b9 3d 53 5e 03 be
       -0.018034462 -0.02402872 0.09035523 -0.1282895
000220 30 5b 9a 3d ae 51 d2 3d 92 b6 9e 3d 7f 14 9b 3d
       0.07536924 0.102694854 0.07749666 0.07572269
000230 95 1f 90 3d 87 1c e7 bc d8 d4 a2 3d c4 b8 c5 3d
       0.07037274 -0.028211845 0.07950753 0.09654382
000240 21 8c 9d bc f6 ff e9 bc 54 98 60 3a ae 87 97 3d
       -0.019231858 -0.028564434 0.00085676205 0.07398926
000250 71 9b 67 3a b1 e0 9f 3d a9 1c 9a 3d c3 90 a5 3d
       0.0008835113 0.07806528 0.07524998 0.08084252
000260 fc 59 98 bc 4a 8c 99 3d 91 3b 92 3d 06 6c 24 be
       -0.018597595 0.07497461 0.07140268 -0.16056833
000270 1e 01 9b 3d 1a 79 95 3d 17 c1 94 3d c7 af 9d 3d
       0.075685725 0.07298489 0.072633915 0.076995425
000280 09 fc d0 3d bb 54 ec bc 9f 70 a3 3d 43 05 bb 3d
       0.10204322 -0.028848996 0.07980465 0.09131863
000290 80 ce dc bc 7e 7a b1 3d d0 2d 8e 3d 7e 2d c1 3d
       -0.026953936 0.08665942 0.06942332 0.09432505
0002a0 04 51 b5 3d 7b 7f 9e 3d ae e5 29 be 55 3a 16 bd
       0.08853343 0.07739159 -0.16591522 -0.036676724
0002b0 96 df a3 bd 02 0a 07 bd 97 9e df bd b0 ef c3 3d
       -0.0800163 -0.03296853 -0.109189205 0.09567201
0002c0 2b ad 14 bd 2f 58 bd bc ba b2 71 bd ff 81 d0 3d
       -0.03629796 -0.023113338 -0.059008338 0.10181045
0002d0 37 91 96 3d 5b 09 67 bc 18 e8 ec 3a e3 d8 96 3d
       0.07351916 -0.014101352 0.001807454 0.073655866
0002e0 c6 61 cf 3d 19 9a d9 3d 61 7e c6 bc 72 94 a8 bc
       0.10126071 0.10625095 -0.024230184 -0.020578597
0002f0 4f 69 f6 bb d1 74 b7 bc f6 55 93 3d 3f 89 9c 3d
       -0.007519878 -0.02239457 0.0719413 0.07643365
000300 d3 93 06 bd 89 25 e3 bc ea 9a ab 3b 6c 5c 90 3d
       -0.03285582 -0.02772786 0.005236973 0.07048878
000310 b4 99 83 bc d7 f6 ef bc 46 ba f1 3d 3c f1 ba 3d
       -0.016064502 -0.029292507 0.11803107 0.09128043

linear2.weight f4 [1, 200]
000000 c9 ea 87 3e ce 39 f1 bd 09 5f 48 be ef b1 2c 3e
       0.26546314 -0.117786035 -0.19567503 0.16864751
000010 11 f6 9f bc 2f 77 bb bd db 22 57 be 46 b0 6d 3e
       -0.019526513 -0.09153592 -0.2100939 0.23211774
000020 a2 fa 3c be 37 e7 85 be 32 c5 91 bd cb fe 38 be
       -0.18454984 -0.26152965 -0.0711769 -0.18065946
000030 6d 14 97 3e 70 78 ae bd 34 dd 31 be 61 9d 92 be
       0.2950777 -0.085190654 -0.17369539 -0.28635696
000040 18 18 72 be 24 d9 75 3e a1 29 70 3e 53 82 51 be
       -0.23642004 0.24008614 0.2345338 -0.20459871
000050 84 04 fb 3e 04 97 9f be f1 e1 91 3e 04 82 2d be
       0.49026883 -0.31169903 0.28492692 -0.16944128
000060 55 ab b4 3e 66 f8 34 be b5 7b 16 be 44 eb d4 bd
       0.35286966 -0.17672881 -0.14695628 -0.10396436
000070 c2 76 8c 3e e2 b1 46 be 40 25 d9 3d 3a 72 02 be
       0.27434355 -0.19403794 0.10602808 -0.12738886
000080 6b 31 99 3e e3 75 c7 bd 7b 2d 35 be f9 1f de be
       0.29920515 -0.09739282 -0.1769313 -0.43383768
000090 eb b2 64 3d 60 31 a0 3e a2 6c 31 3e 36 13 6e 3e
       0.055834692 0.3128767 0.17326596 0.23249516
0000a0 fb 98 12 be ad 61 9d be 09 c6 44 3e 1e 02 bd be
       -0.1431617 -0.30738583 0.1921617 -0.36915678
0000b0 58 62 64 be 4b 87 4e be 54 5e 3d 3e 6d 40 3a be
       -0.2230314 -0.20168798 0.18493015 -0.18188639
0000c0 0c f8 c7 be 2c 70 63 3e 22 74 62 3e 20 10 f6 be
       -0.39056432 0.22210759 0.22114614 -0.48059177
0000d0 4b 14 97 3e 37 fa 68 3b 54 c4 af be d8 3e 2e be
       0.2950767 0.003554953 -0.34329474 -0.1701616
0000e0 0a 01 d6 be 85 3f 6b be 14 b7 0e be 50 d1 af be
       -0.41797668 -0.2297345 -0.13937026 -0.3433938
0000f0 c2 86 c0 be cf 1b f2 bd ca 1b d9 bd f2 7d 36 be
       -0.37602812 -0.1182171 -0.106010035 -0.17821482
000100 58 be c1 bd d9 7d fb bd d8 87 7d 3e 6a 44 82 be
       -0.09460133 -0.12279863 0.24758852 -0.2544282
000110 4e 6d ec 3e 89 e3 91 be a7 26 08 be 95 55 87 3e
       0.46177143 -0.28493908 -0.13295995 0.2643248
000120 bf 12 0d be 61 26 38 be b9 39 72 3e 98 41 18 be
       -0.13776682 -0.1798339 0.23654832 -0.14868772
000130 28 93 db 3d 32 8b 3a be c5 96 d9 bd 38 0f 75 be
       0.10721427 -0.18217161 -0.1062446 -0.23931587
000140 2b 36 86 bc ea dc 59 be b2 c5 92 3b d9 95 42 be
       -0.016383251 -0.21275678 0.0044791335 -0.19002475
000150 96 ee 15 3e 40 54 4d be 18 b0 5a be ef 37 70 be
       0.14641795 -0.2005167 -0.21356237 -0.23458837
000160 ab 28 3c be 82 34 65 be d2 82 31 be 52 cd 6b be
       -0.18374889 -0.22383311 -0.1733506 -0.23027542
000170 d1 c9 ba 3e 15 45 18 be e5 8e 39 be 30 c7 8e be
       0.364821 -0.14870103 -0.18120916 -0.27886343
000180 90 b1 0f be be 6e c7 be ba 5d 2a be b4 f3 77 be
       -0.14032578 -0.38951677 -0.16637316 -0.24214059
000190 b3 76 73 3e b3 d2 fd 3e 31 03 0e be 6c dc a4 3e
       0.23775749 0.49574813 -0.13868405 0.3219942
0001a0 65 da f0 be 67 65 34 be 0c eb c2 3e 74 fa 69 3e
       -0.47041622 -0.17616807 0.38069952 0.22849447
0001b0 90 1e 3e be 04 95 e1 bd 96 b0 fe bd e9 92 91 3e
       -0.18566346 -0.110147506 -0.12436025 0.28432396
0001c0 0f 28 94 be 58 54 7e 3e aa e8 ae be 3e c5 34 be
       -0.28936812 0.24836862 -0.34161884 -0.17653367
0001d0 5d 96 86 bd 61 07 1b be 61 02 3b 3e 39 bf ab be
       -0.06571648 -0.15139534 0.18262626 -0.3354433
0001e0 d0 c1 1d be 1b a5 8e be 61 50 1d be be 43 13 bd
       -0.15405965 -0.2786034 -0.15362693 -0.035953276
0001f0 97 e3 86 3e 09 c0 e9 bd f6 18 97 3e 71 76 b8 3e
       0.26345512 -0.11413581 0.2951123 0.36027864
000200 53 b6 b7 be c2 06 d2 bd 7d 8c 30 be eb 22 82 be
       -0.3588129 -0.10255195 -0.17241092 -0.25417265
000210 62 81 31 3e 44 3d 90 3e ad 91 21 be b4 ce 83 be
       0.17334512 0.28171742 -0.15778227 -0.2574364
000220 95 0d 0c be c0 55 75 be 81 0e c4 bd d5 86 57 be
       -0.13677056 -0.23958492 -0.09573079 -0.21047528
000230 fe c7 56 be 88 28 c9 3e f8 1f 27 be 85 c3 86 be
       -0.20974728 0.39288735 -0.16320789 -0.26321045
000240 9c 94 94 3e c5 6a 9f 3e 15 c2 66 3e 88 05 84 be
       0.2901963 0.31136146 0.22534974 -0.2578547
000250 b1 cc 56 3e f2 85 10 be e1 06 fd bd 40 f1 4f be
       0.20976521 -0.14113596 -0.12354828 -0.20306873
000260 5e 24 94 3e b3 ac 59 be 26 98 09 be 80 a0 8a be
       0.28933996 -0.21257286 -0.13436946 -0.27075577
000270 09 13 40 be df 60 41 be 54 6a 8e be 67 1a f6 bd
       -0.18757261 -0.1888461 -0.27815497 -0.120167546
000280 31 a3 4b be 38 2c fd 3d f4 cc 89 be 66 ab 69 be
       -0.19886471 0.1236195 -0.2691418 -0.2281929
000290 d9 17 b9 3e e7 52 1a be 1b 3f 2a be 22 59 e7 bd
       0.36151007 -0.15070687 -0.16625635 -0.112962976
0002a0 bc 57 3c be cd 00 22 be 28 bd fb be 50 c2 9d 3c
       -0.18392843 -0.15820618 -0.49167752 0.019257694
0002b0 5e 63 3d be 4b 78 c8 3e 62 a0 23 be bc c0 3b be
       -0.18494937 0.39154276 -0.1597915 -0.18335241
0002c0 e4 37 a3 3e 96 e6 ca be c5 e3 eb bd 83 7f 12 be
       0.3187858 -0.39629048 -0.11518053 -0.14306454
0002d0 d2 9f 3f be b2 fc 82 3e a9 b3 53 3e fe 30 18 be
       -0.1871331 0.25583416 0.20674004 -0.14862439
0002e0 d6 1e 2a be 32 58 db be ff 9d 1a 3e e5 e6 b7 3e
       -0.16613325 -0.42840725 0.15099333 0.35918346
0002f0 b2 f4 4d 3e f5 86 80 3e 71 79 95 be 9f 6c f1 bd
       0.20112875 0.25102964 -0.29194215 -0.11788296
000300 9d e4 f9 3c bf 93 90 3e c1 79 a3 3e e7 d2 2b be
       0.03050452 0.2823772 0.31928828 -0.16779672
000310 d7 37 4c 3e a8 7d aa 3e b0 68 82 be c0 cf 22 be
       0.19943176 0.33298993 -0.25470495 -0.15899563
